data.pth (torch, 10263 bytes, 6 tensors)

l1.weight f4 [8, 128]
00000000: cbff 793e 9657 713e 96d5 46c1 a181 93c0
00000010: 755f d63f 8045 e3bf 8913 0f40 7959 223f
00000020: f726 8a3f f0b0 e83e 2835 e43f 0ba0 e03f
00000030: 805a 613f 3b34 093d 07b1 503f 5f50 19be
00000040: 28c3 bd3c dfb4 8d3e ef2a a5c0 7a58 733e
00000050: b964 573f 94ce 3540 6832 6dbf cd51 d63f
00000060: a9e2 71c0 d743 783f 56a9 fdbb 8a59 b5c0
00000070: 9b0e f63f bbac c23f 9dc4 9d3f 3312 83bf
00000080: 1a0e 4640 45f3 3a40 ac67 3240 9ed5 3c40
00000090: bf8b d33e e631 743f cb46 1a40 6662 d4bf
000000a0: 633a d03f a9d9 0bc1 4b1b 42c0 150c eec0
000000b0: e65c 14c0 d672 2640 100e 713f f2ff 87bf
000000c0: a6a4 1140 f77d 2ec0 e7a6 0bc0 29c9 4d3f
000000d0: 458a ea3f 4541 3840 a418 3840 9bed 483f
000000e0: d097 a33f f088 0a40 d21a 21c1 e306 863d
000000f0: fdd1 0dbf ca9f 9540 4d70 09bf f6af 1a3f
00000100: abb5 363f 76fb ec3f 090f 603e bc4d 853f
00000110: d68c 7c3f 9b7a 3540 ed52 42c0 83ee 623f
00000120: ca60 7f3f c6eb 3f40 387e 3c40 507d 09c0
00000130: 89e9 7d3f 0c99 e53f 7606 963d 6955 5ebe
00000140: 2714 bb3f 730b bf3f ab93 1e3f 36d4 bb3f
00000150: ce12 bbbd bf8c 9c3e d292 9cbd 181b 8dbf
00000160: be27 e33f 53ec c6bf 257c b4bf 31cd b13f
00000170: d37d 86c0 0a5d 313f 1455 8740 09f6 b8c0
00000180: 7763 91bd ac8e 0bbe 7dbb 59bf 336f 2a40
00000190: 3fb4 c4c0 0513 bfc0 25e7 b43f e0fb 3ac0
000001a0: dfd9 94c0 e069 15c0 20a7 b3bf 5605 603f
000001b0: 8697 e9c0 5c3c 2c40 3ba5 acc0 6c35 453f
000001c0: a50c 79bd 95d3 4a3e 3b3b bec0 375d 26bf
000001d0: d109 9d3f 4682 113f fdb6 96c0 2f55 e13d
000001e0: 3789 5b3f f870 483f 0fc2 243e abe3 3e40
000001f0: c292 96bc e24e d83d d4b8 abc0 6179 be3e
00000200: 27c7 3b3e 343b 1bc0 c4aa 633f 4cb0 67bf
00000210: 3031 f9bc f2ed 3e40 edcb 7340 cc6e d63e
00000220: 1dd7 2fbf 4602 cdbf 1872 943d 4814 663e
00000230: 06cb 1840 43f3 d13f 967d 6c40 7543 a1bf
00000240: a48b eabd b461 973e a007 01c1 cec7 0dc0
00000250: 7b61 b53f d67d ddbf 378f 51c0 6789 8dc0
00000260: 506c 6ac0 4c81 6940 41d4 f83d fb75 c3c0
00000270: cfe0 06c1 3500 4bbe 9025 34bf 1125 d840
00000280: 9570 b5bf cdc8 f4be d74f 14c0 be6b a0c0
00000290: c89b 7f3c 974d c23f 03f7 7640 dcb4 cabf
000002a0: 4418 f6bf 1d6f c13f ccb3 8440 3d56 0740
000002b0: e609 a73e ca96 3ebf 62ea 9d3f 0e08 8fbf
000002c0: b612 3ec0 fb64 3540 8b6f 1140 2773 54bf
000002d0: 4c06 22c0 f6c0 09bf 06b5 bcbf a04a 9b3f
000002e0: a2b1 e3be c497 1a40 432e 4640 0e8b 79bf
000002f0: 8eae 99bf a4c5 1ac0 eb78 a2bf 0075 29bf
00000300: 6986 89be b9bd 2d3e 9979 d33c c12a 80bf
00000310: 6a87 fd3f 2076 943f 1e76 3140 d433 98bf
00000320: 4555 bb3f d051 3abe 4827 f3bf f3ad d93e
00000330: 415e be3f 855a 90bd bed4 d4bc 4dd2 26bf
00000340: 5626 4f40 1cfa 4e40 27c8 243f 3a3a 33bf
00000350: d053 cc3d a754 2ac0 f04d 3fbf 2666 e83f
00000360: c611 083e 2925 6fc0 f651 60c0 8e2b e43f
00000370: f412 5540 4cd8 293f 90b1 e0bf ca1c d6bf
00000380: ee44 9abf 7a54 30bf d225 54c0 240d 573d
00000390: 9d6e a93e d552 0bbe b27e a5c0 2cff 673e
000003a0: 9a40 47c0 543b 5e3f a6f5 8a40 78ae 25c0
000003b0: 4e50 c63e 2928 70bf cdfa 0bbf d13e f1bf
000003c0: c9c7 10bd e647 173e f668 d4c0 25d8 3ec0
000003d0: fe2e 8f3b bce3 a83e 3a8a 4cc0 6f1e 3cbd
000003e0: 4c28 2a40 db2e 42bc 139a 27bf 55ad a93e
000003f0: 3a88 dc3b 1682 1ebe 8d95 af40 e08c 03bf
0.24413984 0.23568568 -12.427145 -4.609574 1.6747881 -1.7755585 2.2355673 0.63417774
1.0793141 0.45447493 1.7828722 1.7548841 0.8802872 0.033497076 0.8152012 -0.14972065
0.023164347 0.27677056 -5.161491 0.2376422 0.84138066 2.8407335 -0.9265504 1.6743714
-3.7794592 0.96978515 -0.0077411337 -5.66718 1.9223207 1.5208963 1.2325627 -1.0239929
3.0946107 2.921098 2.7875776 2.9505382 0.41317555 0.9538864 2.4105709 -1.6592529
1.6267818 -8.74064 -3.0329158 -7.438975 -2.31817 2.600759 0.9416208 -1.0624983
2.2756743 -2.7264383 -2.182062 0.8038507 1.8323447 2.8789837 2.876504 0.7848756
1.2780704 2.164608 -10.069048 0.06544282 -0.5539854 4.6757555 -0.5368698 0.60424745
0.71370953 1.851424 0.21880735 1.0414348 0.986524 2.8356082 -3.0363114 0.8864519
0.99757063 2.9987655 2.9452038 -2.1482735 0.9918447 1.7937331 0.07325451 -0.21712269
1.4615525 1.4925369 0.61944073 1.4674137 -0.09134446 0.3057613 -0.07645191 -1.1023893
1.7746503 -1.554087 -1.4100386 1.3890744 -4.2028594 0.6928259 4.2291355 -5.7800336
-0.070990495 -0.13628644 -0.8505171 2.663037 -6.1470027 -5.9710717 1.413304 -2.9216232
-4.6515956 -2.334587 -1.4035378 0.8750814 -7.2997465 2.691184 -5.3951697 0.7703464
-0.060803074 0.19807275 -5.9447303 -0.64985985 1.2268621 0.56839406 -4.7098374 0.110025756
0.8575625 0.78297377 0.16089652 2.9826458 -0.018380526 0.10561921 -5.366312 0.3720198
0.1833769 -2.4254885 0.8893244 -0.9050338 -0.030418962 2.983273 3.8093216 0.41881406
-0.6868761 -1.6016319 0.07248324 0.22468674 2.3873916 1.6402363 3.6951652 -1.2598711
-0.114524156 0.2956673 -8.064362 -2.21532 1.4170374 -1.7304027 -3.2743661 -4.4230227
-3.6628609 3.6485167 0.12149859 -6.108152 -8.429885 -0.19824298 -0.70369816 6.7545247
-1.4174982 -0.4780945 -2.317373 -5.013152 0.015601106 1.5179929 3.8588264 -1.5836444
-1.9226155 1.5112034 4.146948 2.1146386 0.3262474 -0.74448836 1.2337153 -1.1174333
-2.969892 2.8342884 2.272433 -0.8298821 -2.5316343 -0.5381006 -1.4742744 1.2132149
-0.4447146 2.415513 3.0965736 -0.97477806 -1.2006395 -2.418313 -1.2693151 -0.6619415
-0.2686036 0.16966905 0.025814818 -1.0013047 1.980695 1.1598549 2.7728343 -1.1890817
1.4635397 -0.18195271 -1.8996363 0.42515525 1.4872514 -0.07048515 -0.02598035 -0.65164644
3.2367148 3.2340155 0.6436791 -0.7001072 0.099769235 -2.6614168 -0.747283 1.8156173
0.1328803 -3.736643 -3.5050025 1.7825792 3.3292818 0.6634567 -1.7554188 -1.6727536
-1.2052286 -0.688789 -3.3148084 0.052502766 0.33092204 -0.13605817 -5.1717157 0.22655934
-3.113318 0.8680928 4.3424864 -2.5887737 0.38733143 -0.9381128 -0.54679567 -1.8847295
-0.03534678 0.14773521 -6.6378126 -2.9819424 0.0043696156 0.32986248 -3.1959367 -0.04592746
2.6587095 -0.0118519915 -0.65469474 0.33140054 0.0067301067 -0.15479311 5.4870057 -0.51386833

l1.bias f4 [8]
00000000: 4ceb 02bf bf0c eabe 39df 0cbe ac5c 0bbf
00000010: 9a86 6d3f b616 903e 274e c7be 9d8f 7e3f
-0.51140285 -0.4571285 -0.13757028 -0.5443828 0.9278351 0.28142327 -0.38926813 0.99437886

l2.weight f4 [8, 8]
00000000: e56a 2f3f 28b5 6f40 db03 e2bf 674f 8d3f
00000010: 4e33 af3f 04d6 c5c1 89f0 1ac1 2bd2 fabf
00000020: 9111 12c1 f203 f5bf 7915 3fc1 a01b 3cc1
00000030: 95d9 cfc0 7173 19c1 800c 55c0 f873 d4c0
00000040: 910f f9c0 2530 52c0 d55b 26c1 f09a 20c1
00000050: 1136 dcc0 ad30 11c1 7953 eebf 4eb8 e5c0
00000060: 97e7 4ac0 362b 0b40 1877 c6c1 cd06 1640
00000070: 694b 713f 51d6 673f ebbb 5040 c24a 063f
00000080: 4d86 fb3f 1aa0 4dc1 2611 18bf 3bdc aec0
00000090: a841 dcbf 2e69 a83f bebf 5abd b705 1740
000000a0: abc9 cfbe fcaf bfbd 88e7 75bf 042c 593f
000000b0: c7a8 bec1 1b5c d1bf f48f 6140 30ca 27c1
000000c0: 6270 20c1 00f9 6ec0 50ba 2cc1 88ee 23c1
000000d0: 78ea cdc0 286f f4c0 ebf4 4cc0 cc40 97c0
000000e0: 6151 61c1 1cd4 1bc1 c047 aa3f 7e5b d4bf
000000f0: 4156 4c40 34b7 5a3f a205 46c1 6540 1bbf
0.68522483 3.745432 -1.7657427 1.1039857 1.3687532 -24.7295 -9.683724 -1.9595388
-9.129289 -1.9141829 -11.942742 -11.756744 -6.4953103 -9.590684 -3.328888 -6.6391563
-7.78315 -3.2841885 -10.39742 -10.037827 -6.8816 -9.074384 -1.8619224 -7.178748
-3.1703851 2.1745124 -24.808151 2.344165 0.9425569 0.90561396 3.2614696 0.5245782
1.965036 -12.851587 -0.59401166 -5.4643836 -1.7207537 1.3157098 -0.053405516 2.3597238
-0.40583548 -0.09359738 -0.96056414 0.8483279 -23.83241 -1.6356233 3.5244112 -10.486862
-10.027437 -3.7339478 -10.795486 -10.245735 -6.4348717 -7.638569 -3.2024486 -4.72666
-14.082368 -9.7392845 1.3303146 -1.6590421 3.1927645 0.85435796 -12.376375 -0.60645133

l2.bias f4 [8]
00000000: 8fb8 d03f 13ca 0fc1 418d 0cc1 64fb 4f3f
00000010: 04e4 a0be 39e6 0240 c9ec 16c1 30cb 5fbd
1.6306323 -8.986835 -8.784486 0.81242967 -0.31423962 2.0453017 -9.432809 -0.054637134

l3.weight f4 [46, 8]
00000000: 35ab 8bc1 2f00 3ebf 80d0 f53d b2f6 1fc2
00000010: c731 7dc2 3faa 0d41 aa60 aebe 9344 bfc1
00000020: 8eaa 85c2 27b6 a63e 0e93 d7be 3cf7 48c1
00000030: f1d4 62c2 e5f1 67c2 c3bd 453e 3b31 0741
00000040: 4d58 363f c339 413f 5321 e4bc 27ff f8c1
00000050: 7a13 82c2 7610 bcc0 8a62 10bf b1cb 65c2
00000060: b24d 84c2 2bb7 c4be 7a7c 18be dd09 3dc2
00000070: badc aa40 ff6a 47c2 73ba 203e 09fc 68c1
00000080: 9070 44c2 5446 7ebf 88d6 cbbe e386 83c2
00000090: 9d04 2d41 d720 4dc2 2577 7a3e f46c 61c2
000000a0: 846d 6dc2 ee45 1ebf e7fc ecbe 935c b7c1
000000b0: 514e ea40 3c9f 84c2 906c 5b3f ecbd 5dc2
000000c0: 9c28 75c2 578d c8bd 8f87 20bf af7f c5c1
000000d0: 0052 c9c0 75e8 2fc2 0998 503e e0ea 4a40
000000e0: e2df d93f 2278 853e 57ce 0a3e e083 a1c0
000000f0: e46c 42c2 bb62 72c1 bee5 d4be 7365 35c2
00000100: cd7a e4c1 c617 c9be ce00 3fbf 107d 51c2
00000110: d2a6 83c2 875e 83c2 9325 813d 21a3 2c41
00000120: 93ed 1241 7afa 5c3f 12d5 56bc 5719 2cc2
00000130: 5bdc 72c2 6c15 67c2 4bac 3fbf 109f 87c2
00000140: 568a 12c1 b707 13bf e5da 09be 9693 6dc2
00000150: 02b6 e840 a67b 5ec2 2acf af3e 24e8 62c2
00000160: 8445 94c1 ccc4 363d 461c 13bf 0691 22c1
00000170: 48c5 20c2 5722 67c2 5606 663d 8f0f 0f40
00000180: 1bd0 8440 754c 093e f467 08bf fb27 efc1
00000190: 0d26 79c2 6c17 96c2 e48b 82bf 691c e5c1
000001a0: 0faf 71c1 f492 fd3e 1727 c8be 8ce4 1241
000001b0: 7e10 69c2 6232 8dc2 91e2 38bf 788b 22c2
000001c0: 438c 43c0 1e95 8f3d c553 3e3e 4095 8dc1
000001d0: 304c 4b3f 64ab 3cc2 7c5f debe bdf5 49c2
000001e0: 7563 60c2 9df7 063f 468b 98be ad23 e23f
000001f0: 4a20 cec0 347e 6cc2 566f 913f 0c67 adbd
00000200: 99b6 92c0 dcf2 be3d fa3a 3f3f 574e 64c2
00000210: 3208 4ac1 d310 8a40 e15e 113d 356d 4bc2
00000220: 4123 a0c2 998a 50bf 467c 543d fb6b 4641
00000230: 03b4 7ec2 eff5 78c1 4d5d eabe 22be 54c2
00000240: 999e 1840 344f 10be fcb9 75bc 7130 80c2
00000250: b2ed 7fc1 5e03 b0c1 c2ba 4dbf 164a 52c2
00000260: a9a0 63c2 2a61 7dbe fc42 783e c79b 4c41
00000270: 11ab a2c1 1e8c 8cc2 0089 d13e 18e6 39c2
00000280: 1b05 94c2 e6d8 3fbe 78d4 1bbe 34d8 c6c1
00000290: 504b 99c2 8ccc e440 377d 99be 5593 39c2
000002a0: 281a a6c1 9fed 2ebf a1dc 453c 5b14 c040
000002b0: 1073 69c2 a4f1 42c1 b910 4ebf 7b95 1cc2
000002c0: 8ed8 0141 6ddd 2a3f efcf 013e 987d abc2
000002d0: 8cdf 4dc2 326a 83c2 fe00 b9be 4a12 b6c1
000002e0: 324a 64c0 88e3 083e 4507 15bf f958 31c2
000002f0: 7667 6ec2 1aa5 62c2 71ff 763e a212 873f
00000300: dad8 7fc2 2640 84bf 7226 033f f1ac bf40
00000310: 82cd 24c1 dd8c 2fc1 88e5 cebe d1af e7c1
00000320: 4373 28c1 a9fb 323e 8190 b4be bad4 1440
00000330: f144 06c1 3fff 79c2 c61f ad3e 06db a2c1
00000340: ff9a a0be 40ee ccbe c6a8 c9be d9f5 aac1
00000350: 720d 3ec1 6356 6fc2 bec8 db3d 4099 10c1
00000360: efb3 32c1 2ead 163e 2823 023f c532 5fc2
00000370: d63f 7d40 917b 6ac1 af84 0f3f bc49 87c2
00000380: f8dc 71c2 4702 8cbf d154 c6bd b905 79c2
00000390: d3cf 1cc2 6401 9c40 eb05 27bf 4384 57c1
000003a0: 4769 9bc2 60ff 88bf 5fc7 ae3e 8ae2 75c0
000003b0: c139 88c2 0980 6dbd 7517 1ebf a197 46c2
000003c0: 8e1d 8fc2 3c52 7cbe ce10 48bf 9a48 77c2
000003d0: 30ae ddc1 8d34 40c2 10b9 3ebe e7b7 1441
000003e0: 0c43 72c2 23ee 62bf 146f 63be 9d86 5cc0
000003f0: abcf e6bf d177 86c2 ba69 aa3e bc45 2cc2
-17.458597 -0.7421903 0.12002659 -39.990913 -63.29861 8.854064 -0.34058124 -23.908484
-66.833115 0.32560846 -0.4210438 -12.56036 -56.70795 -57.986225 0.1931067 8.449519
0.71228486 0.7547876 -0.027847921 -31.124586 -65.03804 -5.8770094 -0.5640036 -57.448917
-66.15175 -0.38420996 -0.14891234 -47.259632 5.339444 -49.85449 0.15696125 -14.561532
-49.109924 -0.9932606 -0.39812112 -65.76345 10.813626 -51.28207 0.24459513 -56.3564
-59.35695 -0.61825454 -0.462867 -22.920202 7.32206 -66.311005 0.8571253 -55.43547
-61.289658 -0.097925834 -0.62706846 -24.687346 -6.29126 -43.97701 0.20370497 3.1705856
1.7021449 0.26068217 0.13555275 -5.047348 -48.60634 -15.149104 -0.4158153 -45.34907
-28.559961 -0.3927595 -0.746106 -52.37213 -65.82582 -65.68462 0.06305995 10.789826
9.1830015 0.86319697 -0.013112323 -43.024746 -60.71519 -57.77092 -0.74872273 -67.81067
-9.158773 -0.57433647 -0.13462408 -59.394127 7.2722178 -55.62075 0.3433774 -56.7267
-18.533943 0.044621274 -0.57465017 -10.160406 -40.192657 -57.783535 0.056158386 2.2353246
4.1504035 0.13408072 -0.5328362 -29.894522 -62.28716 -75.045746 -1.0198941 -28.638872
-15.105239 0.4952618 -0.39092323 9.180798 -58.266106 -70.598404 -0.7222071 -40.6362
-3.055436 0.07010864 0.18586643 -17.697876 0.7941313 -47.167374 -0.43432224 -50.48998
-56.097126 0.5272158 -0.29793757 1.7667137 -6.4414415 -59.123245 1.1362102 -0.0846692
-4.5847898 0.093236655 0.74699366 -57.076504 -12.627001 4.3145537 0.035490874 -50.856647
-80.068855 -0.81461483 0.05187633 12.401362 -63.675793 -15.560042 -0.45774308 -53.185677
2.38468 -0.14092714 -0.014997955 -64.09461 -15.995531 -22.001644 -0.80363095 -52.57235
-56.906895 -0.24744096 0.24244303 12.788032 -20.333529 -70.27367 0.40924835 -46.4747
-74.00997 -0.18735084 -0.15217769 -24.855568 -76.647095 7.149969 -0.29978344 -46.39388
-20.762772 -0.6833133 0.012076528 6.002485 -58.362366 -12.183994 -0.80494267 -39.145977
8.11537 0.6674412 0.12676977 -85.7453 -51.468307 -65.70741 -0.3613357 -22.75893
-3.5670285 0.13368046 -0.5821422 -44.336887 -59.601036 -56.661232 0.2412088 1.0552561
-63.96177 -1.0332077 0.5123054 5.989861 -10.300173 -10.97189 -0.40409493 -28.960848
-10.52814 0.17478813 -0.35266498 2.3254838 -8.391831 -62.499264 0.33813304 -20.356945
-0.31368253 -0.4002552 -0.39386576 -21.370043 -11.878283 -59.834362 0.10731648 -9.037415
-11.168929 0.147145 0.50834894 -55.79958 3.9570212 -14.655168 0.56061834 -67.64401
-60.46579 -1.0938195 -0.09684146 -62.25559 -39.202953 4.8751698 -0.65243405 -13.46979
-77.70562 -1.0702934 0.34136483 -3.8419518 -68.1128 -0.057983432 -0.6175454 -49.648075
-71.557724 -0.24640745 -0.7815064 -61.8209 -27.710052 -48.05132 -0.18625283 9.294898
-60.565475 -0.8864462 -0.22210342 -3.4457161 -1.8032125 -67.23402 0.33283788 -43.0681

l3.bias f4 [46]
00000000: 4c1f 19c0 4655 74be 4dd0 8bbf 73df c43f
00000010: b3ea 3540 a171 a53f e209 a2bf 8eac bfc0
00000020: a328 173e 2a8e 8740 1ce4 04bf cfe4 3ac0
00000030: f70a 3c40 5cd7 a1c0 793a 67c0 3dd9 fcc0
00000040: 2a61 cec0 06cf d4c0 d16f af3e c767 d7c0
00000050: 07b7 5e40 2c01 ccc0 e1b7 4040 0e80 3bbf
00000060: c97b 05c1 68e1 f9c0 9515 9bc0 2cc2 52c0
00000070: 7d27 3040 fd90 fd3e 2599 dd3f a39c 27bf
00000080: 4d2d 50c0 8da4 07bf 7b76 44bf 4762 8540
00000090: b931 d7bf 6741 7dbf 414c 3340 4f70 1c40
000000a0: 2f0b 58bf 7e5f a1c0 ff18 a1c0 b4d8 e3bf
000000b0: 82f5 3fc0 0569 68c0
-2.3925352 -0.23860654 -1.0922943 1.5380691 2.84245 1.2925302 -1.2659266 -5.989814
0.14761595 4.236104 -0.5191057 -2.9202154 2.9381692 -5.057539 -3.612944 -7.9015183
-6.449361 -6.6502714 0.34264997 -6.731418 3.479921 -6.375143 3.011223 -0.7324227
-8.342721 -7.8087654 -4.8463845 -3.2931013 2.7524102 0.4952468 1.7312361 -0.65473384
-3.252765 -0.5298546 -0.76743287 4.1682467 -1.6812049 -0.9892792 2.8015292 2.4443548
-0.84392065 -5.0429068 -5.0343013 -1.7800508 -2.9993596 -3.63141
